Models/dqn_car_episode_250.pth (torch, 544754 bytes, 11 tensors)

fc1.weight f4 [256, 10]
0	0x3e8b0f42	0.27160078
1	0x3e57f13a	0.21088114
2	0xbe0e3c13	-0.13890104
3	0xbd695ef8	-0.056975335
4	0xbd12a317	-0.035800066
5	0xbe363d2c	-0.17796773
6	0x3e8a44e9	0.270057
7	0x3e82f040	0.2557392
8	0xbc3d16d0	-0.011541083
9	0xbfd44439	-1.658332
10	0x3e2c3faf	0.16821168
11	0x3d6ac742	0.057318933
12	0x3e03cda4	0.12871414
13	0xbefc704b	-0.49304423
14	0x3d40b7a3	0.04705013
15	0xbf205434	-0.62628484
16	0xbe91e88b	-0.2849773
17	0xbf3c16fd	-0.7347258
18	0xbcf615b6	-0.03003965
19	0x3f358458	0.70905066
20	0x3e782b5b	0.24235289
21	0xbee17071	-0.44031098
22	0x3cec73bb	0.028863778
23	0x3d00170a	0.03127197
24	0x3e7781cb	0.24170606
25	0x3e461da0	0.19347239
26	0x3e21e891	0.15811373
27	0xbe9de2d6	-0.30837125
28	0x3dead9c9	0.114673205
29	0xbe4bc3dd	-0.19898935
30	0x3daa0628	0.083019555
31	0xbe6def54	-0.23235828
32	0x3e50bdab	0.20384853
33	0xbdebcc92	-0.11513628
34	0x3d7ed117	0.062211122
35	0x3e03e93b	0.12881939
36	0x3e87aae7	0.26497576
37	0x3edbd2d8	0.429343
38	0x3eba0f33	0.3633972
39	0xbe005354	-0.12531787
40	0x3e2e6fbd	0.17034812
41	0xbd5660d9	-0.052338455
42	0x3eb649e3	0.35603246
43	0xbd44fee1	-0.048094634
44	0x3b3a5033	0.002842915
45	0xbe898ae8	-0.2686379
46	0xbd724b50	-0.059153855
47	0xbd6005bc	-0.05469297
48	0xbc51698a	-0.01278151
49	0x3f816c31	1.0111142
50	0x3e7d6952	0.24747208
51	0xbe1d9fe4	-0.15393025
52	0x3ea78829	0.3272107
53	0x3eae0009	0.33984402
54	0x3eb6918e	0.35657924
55	0xbdfb7612	-0.122783795
56	0xbd22636b	-0.039645594
57	0x3eed8025	0.4638683
58	0x3e63eb9f	0.22257851
59	0xbf505458	-0.813787
60	0xbd93050b	-0.07178696
61	0x3e8b72cd	0.27236024
62	0x3c177d6f	0.009246214
63	0xbd437afd	-0.047724713
64	0xbf0e642e	-0.5562161
65	0xbf681b22	-0.906664
66	0xbf15c3a0	-0.58501625
67	0x3c91474b	0.01773419
68	0x3d5bf809	0.05370334
69	0x3f729cc1	0.9477044
70	0xbdf473a8	-0.11936122
71	0xbe28ed73	-0.1649683
72	0xbdc34600	-0.09534836
73	0x3e29e114	0.16589767
74	0x3dd1b724	0.102400094
75	0xbe203966	-0.15646896
76	0xbe70e7fe	-0.23525998
77	0xbde09494	-0.10965839
78	0xbd4fcb28	-0.050730854
79	0xbe800dd8	-0.25010562
80	0x3d199938	0.037499636
81	0x3d01ce90	0.031691134
82	0xbde6f4d4	-0.11277166
83	0xbe6d0fc4	-0.23150545
84	0xbe0d4e39	-0.13799371
85	0xbe4a7366	-0.19770584
86	0xbcecf620	-0.028925955
87	0xbe87efd0	-0.2655015
88	0x3e4ba566	0.19887313
89	0xbd6ff9d8	-0.05858788
90	0xbe3506f3	-0.17678432
91	0xbebaa2ca	-0.36452323
92	0xbea10f25	-0.31456867
93	0xbda91a0f	-0.082569234
94	0x3e35df62	0.17760995
95	0xbeaa6c99	-0.33285978
96	0xbe29e607	-0.16591655
97	0x3ece2e12	0.40269524
98	0x3e148d30	0.14506984
99	0xbf511c04	-0.81683373
100	0x3cf32c42	0.02968419
101	0xbe8393db	-0.25698742
102	0xbe09e37b	-0.13465683
103	0xbc9ea2f7	-0.019364817
104	0x3e75b813	0.23996
105	0x3f20b332	0.6277343
106	0x3e4d98a6	0.20077762
107	0xbde70dc4	-0.112819225
108	0x3dec2f44	0.11532453
109	0xbf52ad93	-0.82296103
110	0x3de5d60e	0.11222468
111	0x3e6315b5	0.2217625
112	0x3e9d4447	0.30716154
113	0xbea7bae4	-0.32759774
114	0xbe2f2acc	-0.1710617
115	0x3d92b9b8	0.07164329
116	0xbeb7933c	-0.35854518
117	0xbf126972	-0.57192147
118	0xbeaf7438	-0.34268355
119	0x3ed5a8f6	0.4173047
120	0xbe455aa7	-0.19272862
121	0x3e68e5cb	0.22743909
122	0x3e626ec4	0.22112566
123	0x3edc35d5	0.4300982
124	0x3e8ce9db	0.27522168
125	0x3df73103	0.12069895
126	0x3e8e7ddf	0.27830407
127	0x3e965cd6	0.29367703
128	0x3ec6dc70	0.38840055
129	0x3eee387b	0.46527466
130	0xbe60e66e	-0.21962902
131	0xbb80fb56	-0.0039362116
132	0xbe1ad972	-0.15122011
133	0x3f074509	0.52839714
134	0x3efdb55a	0.49552423
135	0x3e8c26b9	0.27373293
136	0xbebba014	-0.36645567
137	0x3e717235	0.23578723
138	0x3e9cf8af	0.3065848
139	0xbf8ecb0d	-1.1155716
140	0x3e414e54	0.18877536
141	0xbc92355e	-0.017847713
142	0x3e53af11	0.20672251
143	0xbc477b49	-0.01217539
144	0xbe9238db	-0.28559002
145	0xbf6904f3	-0.91023177
146	0xbeaffa71	-0.3437076
147	0xbf0ff679	-0.5623546
148	0x3da122d3	0.0786797
149	0x3f5ff0e6	0.87476957
150	0xbdc09de8	-0.09405118
151	0x3d51b470	0.05119747
152	0x396da800	0.00022664666
153	0x3df8b4a0	0.121438265
154	0xbc48d8c0	-0.0122587085
155	0xbe9afe53	-0.3027216
156	0xbe5906a1	-0.21193935
157	0x3dc9aef0	0.0984782
158	0xbe0e1f68	-0.13879168
159	0x3d141768	0.036155134
160	0xbeb6ac89	-0.3567851
161	0xbde812fd	-0.11331747
162	0xbda3df48	-0.08001572
163	0x3ec19615	0.37809816
164	0x3ea99ce7	0.3312752
165	0x3e4888f8	0.195835
166	0x3e41cbb3	0.18925361
167	0x3eecad18	0.4622581
168	0x3e7571e6	0.2396923
169	0xbf3775f4	-0.7166436
170	0xbe1c18e7	-0.15243874
171	0x3cf24f53	0.02957884
172	0x3e868852	0.2627588
173	0x3d681c47	0.056667592
174	0x3e055192	0.13019398
175	0xbf3de4ca	-0.7417723
176	0xbeed2b13	-0.46321926
177	0xbbe83dcb	-0.0070874444
178	0xbeef2574	-0.46708262
179	0xbc269768	-0.010167934
180	0x3e100b69	0.14066853
181	0x3e4711f0	0.19440436
182	0xbe134803	-0.14382939
183	0x3e60019a	0.21875611
184	0xbc9c5cdd	-0.01908725
185	0x3c9bf5eb	0.019038161
186	0x3e6bc36c	0.23023766
187	0x3eb82677	0.35966846
188	0x3d3e2645	0.046423215
189	0x3d86a644	0.065746814
190	0xbe77bb72	-0.24192598
191	0x3e525a0f	0.20542167
192	0x3e85aa71	0.261066
193	0xbe217c44	-0.1577006
194	0x3d844cb5	0.06459943
195	0xbe7c2f2f	-0.24627374
196	0xbdceaf1b	-0.100919925
197	0xbd01d61d	-0.031698335
198	0xbf2d757b	-0.67757386
199	0x3f426a44	0.759434
200	0x3eea4255	0.45753732
201	0x3e84546f	0.25845668
202	0x3e3d5065	0.184877
203	0x3db267e2	0.0871122
204	0x3dc1daf2	0.09465589
205	0xbc86d611	-0.016459497
206	0xbd18787e	-0.037224285
207	0xbe1ea8e6	-0.15494117
208	0x3e685bc2	0.22691253
209	0xbf351221	-0.7073079
210	0xbd27f82a	-0.041008152
211	0x3e1632ef	0.14667867
212	0x3e29aed4	0.16570598
213	0xbed47feb	-0.41503844
214	0xbe99776f	-0.29973933
215	0xbf115dbf	-0.5678367
216	0xbdb79c52	-0.089653626
217	0xbf80ff01	-1.0077821
218	0xbdfd25e4	-0.12360743
219	0x3f831c3d	1.0242993
220	0x3e6d31b1	0.23163487
221	0x3d9e1fac	0.07720885
222	0x3e857ab5	0.2607018
223	0x3e1d9cbb	0.15391819
224	0xbf29a9bc	-0.6627462
225	0xbf209c82	-0.6273881
226	0xbf1918bb	-0.5980336
227	0xbee1bf0a	-0.44091064
228	0xbbf20013	-0.0073852628
229	0x3e6a87bd	0.22903343
230	0xbe85d3cb	-0.26138148
231	0x3e3b4881	0.18289377
232	0x3de41158	0.111361206
233	0x3e80d4d1	0.25162366
234	0xbf27bf7c	-0.65526557
235	0xbe8a3a0f	-0.2699742
236	0x3e0bdd68	0.13658679
237	0xbe9e30b0	-0.3089652
238	0xbe023b68	-0.12717974
239	0xbebc7c0a	-0.36813384
240	0xbe5d4b9c	-0.21610874
241	0x3e8efb2d	0.27926007
242	0xbe66cfdf	-0.22540234
243	0x3e9a36ad	0.3011984
244	0x3e285e84	0.16442305
245	0x3ec5fda9	0.3867009
246	0x3dde989b	0.10868951
247	0x3f1e389d	0.61805135
248	0x3e203192	0.1564391
249	0x3c9f3e9b	0.019439032
250	0x3ee3f683	0.4452401
251	0xbd5aef75	-0.05345102
252	0x3d47ddba	0.04879544
253	0xbddbbacf	-0.1072899
254	0x3dde3a2e	0.10850941
255	0x3e102799	0.14077605

fc1.bias f4 [256]
0	0xbe8cbf66	-0.27489775
1	0xbd573f3c	-0.05255054
2	0xbe1b3a95	-0.15159066
3	0xbd3ace61	-0.045606975
4	0xbe54ffc0	-0.20800686
5	0xbe8768a9	-0.26447037
6	0x3e48f1d4	0.196235
7	0xbe69d412	-0.22834805
8	0xbe814303	-0.25246438
9	0x3e6ab6bd	0.22921272
10	0x3e2a712b	0.16644733
11	0xbd8a0cbd	-0.06740711
12	0xbecc2c47	-0.3987753
13	0x3e448cfe	0.19194409
14	0xbb5192bb	-0.0031978327
15	0xbe0269f4	-0.1273573
16	0x3da31f55	0.079649605
17	0xbccbded2	-0.024886522
18	0xbe8ba01c	-0.2727059
19	0xbe4e252d	-0.20131369
20	0xbdde1ecd	-0.108457185
21	0x3e93a115	0.28833833
22	0xbd14ed6c	-0.036359236
23	0x3ecff62a	0.40617496
24	0xbdb6d0f1	-0.08926571
25	0xbe41a9c9	-0.18912424
26	0xbe8138b8	-0.25238585
27	0x3c2817e4	0.010259602
28	0xbdee0cca	-0.11623533
29	0x3e320c52	0.17387512
30	0x3e732885	0.23745926
31	0x3ea3b20d	0.3197178
32	0x3e9a5d41	0.30149272
33	0x3e431162	0.190496
34	0x3cb18a54	0.021672405
35	0x3e2340da	0.15942708
36	0x3e07f57f	0.13277243
37	0xbe679c24	-0.22618157
38	0xbdce75f4	-0.100810915
39	0xbeaea26c	-0.34108293
40	0xbe1ebe9f	-0.15502404
41	0x3ead7c6f	0.33883998
42	0x3b8ff527	0.004393238
43	0xbc91be4a	-0.017790932
44	0x3e632d47	0.2218524
45	0x3d2b5aad	0.041834522
46	0x3d0777ba	0.033073165
47	0xbe968792	-0.29400307
48	0x3ea77d45	0.3271276
49	0x3e79517b	0.24347489
50	0x3e15d4f3	0.14632015
51	0x3d449b28	0.04799953
52	0xbe937bf0	-0.28805494
53	0x3c5288ba	0.012849981
54	0xbe9546e8	-0.2915566
55	0x3e82c1ea	0.2553857
56	0xbe157157	-0.14594017
57	0x3e711660	0.23543692
58	0xbe21ffff	-0.15820311
59	0xbcfa3482	-0.030542616
60	0x3e830828	0.2559216
61	0x3e26f26c	0.16303414
62	0x3c1f7cc0	0.009734333
63	0xbe17fd40	-0.14842701
64	0xbe1b7769	-0.1518227
65	0xbe95047a	-0.29104978
66	0x3e7823d8	0.24232423
67	0x3c55f53d	0.013058958
68	0xbe34a80e	-0.17642233
69	0xbe160e36	-0.14653859
70	0xbe8dfec4	-0.27733433
71	0xbe182769	-0.14858784
72	0xbe761065	-0.24029692
73	0xbe299201	-0.16559602
74	0x3ec2fc73	0.38083228
75	0x3e3e2a00	0.18570709
76	0x3e4ac5da	0.19802037
77	0x3e9f4a12	0.311112
78	0x3c371fa2	0.011176975
79	0x3e64e6a0	0.22353601
80	0x3d225d45	0.03963973
81	0x3e90107c	0.28137577
82	0x3e5919ac	0.212012
83	0x3c3a588d	0.011373651
84	0xbe5c918d	-0.21539898
85	0xbeabec6e	-0.3357882
86	0x3cb686f8	0.022281155
87	0x3e878f09	0.26476315
88	0x3e8edff6	0.27905244
89	0x3b4d96f3	0.003137049
90	0xbe83275c	-0.25615966
91	0x3e1501e4	0.14551502
92	0x3e91f810	0.2850957
93	0xbe8a5f37	-0.27025768
94	0xbcbdbd9f	-0.023161707
95	0x3e027c1f	0.12742661
96	0xbe7ddc00	-0.24790955
97	0xbe30aacc	-0.17252654
98	0xbea69179	-0.32532862
99	0x3dbe5005	0.09292606
100	0x3d8bc13b	0.06823965
101	0x3e425f15	0.18981583
102	0xbc9a18b0	-0.0188106
103	0xbdf0f48a	-0.11765392
104	0x3d247d98	0.040158838
105	0x3e87c32b	0.2651609
106	0xbea0fb8e	-0.3144192
107	0xbe2203ee	-0.15821812
108	0xbe9a3aba	-0.3012293
109	0x3ec21962	0.3790999
110	0x3e715ad0	0.23569798
111	0xbe9d56a1	-0.30730155
112	0xbe1b7bee	-0.15183994
113	0x3e6cc808	0.23123181
114	0xbe442d5e	-0.19157931
115	0xbc6cd56c	-0.014455181
116	0xbe9a0ce6	-0.30087966
117	0x3d013341	0.03154302
118	0xbe7b6b27	-0.24552594
119	0xbe574196	-0.21021113
120	0xbe83a6c9	-0.25713184
121	0xbc0c21b9	-0.008552962
122	0x3e33a002	0.17541507
123	0x3e87455f	0.26420113
124	0x3e8ba182	0.27271658
125	0xbdd7fa76	-0.105458185
126	0x3df07220	0.117405176
127	0xbdb87f90	-0.090087056
128	0xbc2e13d3	-0.010624844
129	0x3d127e1b	0.035764795
130	0x3d717e3a	0.05895827
131	0x3d351b78	0.04421565
132	0xbddd2d4e	-0.10799657
133	0xbe13b180	-0.1442318
134	0x3e0fade8	0.14031184
135	0x3e81a1da	0.25318795
136	0xbe9ff1a9	-0.3123906
137	0xbe6b915f	-0.23004673
138	0x3e8c790a	0.27436095
139	0x3b91ff84	0.0044555087
140	0x3d02b694	0.0319124
141	0xbe1017b1	-0.14071538
142	0x3e926a22	0.28596598
143	0xbe7a8faa	-0.24468866
144	0xbe90ce84	-0.2828256
145	0x3dd6716c	0.10470852
146	0xbe7efaca	-0.24900356
147	0x3e8aeab1	0.2713218
148	0x3ec80fa1	0.39074424
149	0x3c4feb18	0.012690328
150	0xbda4a2a8	-0.08038837
151	0x3ef7d30a	0.48403198
152	0xbdbc2b6e	-0.09187971
153	0xbea4ab0c	-0.32161748
154	0xbe3c966f	-0.18416761
155	0x3e810265	0.2519714
156	0x3eae426a	0.34035045
157	0x3e8c1548	0.27359986
158	0x3e8a38d6	0.26996487
159	0x3e08a152	0.13342789
160	0x3e3206a9	0.17385353
161	0x3db21df9	0.08697123
162	0x3e2cc440	0.16871738
163	0x3e1d05c7	0.15334235
164	0xbd4ade31	-0.049528304
165	0xbcca8db5	-0.024725774
166	0x3e65511c	0.22394222
167	0x3e1eeabf	0.15519236
168	0xbebacfa6	-0.36486548
169	0xbe2f7a71	-0.17136551
170	0xbd60810c	-0.05481057
171	0xbe4aafae	-0.19793579
172	0x3e05060d	0.1299059
173	0xbe7a0307	-0.24415217
174	0x3e3684ec	0.17824143
175	0x3ebc4f75	0.3677937
176	0xbe6fe23b	-0.23426144
177	0x3d4fbaaa	0.050715126
178	0xbe78b227	-0.2428671
179	0x3ebc140e	0.3673405
180	0xbdbda507	-0.09259992
181	0x3ea9baa4	0.33150208
182	0x3e32b2e1	0.1745105
183	0x3d6ab124	0.05729784
184	0x3eaa4370	0.33254576
185	0xbe7ed0a6	-0.2488428
186	0x3db1a00a	0.08673103
187	0xbe446d28	-0.19182265
188	0xbe3110a4	-0.17291504
189	0xbe3cd89c	-0.18442005
190	0xbe4e2108	-0.20129788
191	0x3e2c3d15	0.16820176
192	0x3ea0fcbb	0.31442818
193	0x3e1d2e9d	0.15349813
194	0x3e8b720b	0.27235445
195	0xbe826fef	-0.25476024
196	0xbc570f16	-0.013126155
197	0x3e928c24	0.28622544
198	0x3eac8d69	0.33701637
199	0x3cb44058	0.022003338
200	0x3d084bc2	0.033275373
201	0x3e6d0518	0.23146474
202	0x3d43eeb1	0.047835056
203	0xbe37261f	-0.17885636
204	0xbe13d094	-0.14435035
205	0x3dc92f21	0.09823442
206	0xbe60a5fa	-0.21938315
207	0xbd5311da	-0.051530696
208	0x3e84bca2	0.25925165
209	0x3e3b2010	0.1827395
210	0xbde83d0f	-0.11339771
211	0x3ea4e475	0.3220555
212	0x3e866251	0.26246884
213	0x3eb9d731	0.3629699
214	0x3d9a4919	0.075334735
215	0xbc541301	-0.012943984
216	0xbe23cda0	-0.15996408
217	0x3b963393	0.004583785
218	0x3dfdb1b5	0.123874106
219	0x3ebb5ccf	0.36594245
220	0xbd732877	-0.059364762
221	0x3e0c4c52	0.13700989
222	0x3eb4a6c6	0.35283488
223	0x3e925ef6	0.28588074
224	0x3dd869e9	0.10567076
225	0x3d117c8a	0.03551916
226	0x3ebbe92b	0.3670133
227	0xbd9f9648	-0.07792336
228	0xbc0c736b	-0.00857244
229	0x3e2fd573	0.17171268
230	0x3e43b0f7	0.19110475
231	0x3e736644	0.2376948
232	0x3d90bdfd	0.070674874
233	0x3e233fd4	0.15942317
234	0x3e88955d	0.26676455
235	0x3eab12cc	0.33412778
236	0x3e83623a	0.25660878
237	0xbe254c46	-0.16142377
238	0xbe1c9398	-0.15290678
239	0x3e143b8c	0.1447584
240	0x3ea08c46	0.3135702
241	0x3e8b85ee	0.27250618
242	0xbd8c1778	-0.06840414
243	0xbe997a54	-0.2997614
244	0xbde83d96	-0.113398716
245	0x3e5e24fa	0.21693793
246	0x3e99c950	0.30036402
247	0x3d923680	0.07139301
248	0xbd85ddfd	-0.065364815
249	0x3e843a90	0.2582593
250	0xbe3db131	-0.18524624
251	0xbe62943a	-0.22126856
252	0x3e8a09da	0.2696064
253	0xbe35f655	-0.1776975
254	0xbe22483d	-0.15847869
255	0xbd9880f5	-0.074464716

fc2.weight f4 [256, 256]
0	0xbcb9771d	-0.022639805
1	0x3c9a90da	0.018867899
2	0xbd6869c4	-0.05674149
3	0x3d120d74	0.03565736
4	0xbcbd9948	-0.02314438
5	0xbd5f2fdc	-0.054489
6	0x3d3557ab	0.04427306
7	0x3d5b72ae	0.053576164
8	0xbccdddd8	-0.025130197
9	0x3d44b38a	0.048022784
10	0x3ce1c18e	0.027558114
11	0xbd1fef52	-0.039046593
12	0x3c414bbd	0.011797843
13	0xbd306b07	-0.04307082
14	0xbcd8a14e	-0.026444104
15	0x3c3882f0	0.011261687
16	0xbbd712a4	-0.0065635014
17	0xbcb39504	-0.021921642
18	0xbccd13b3	-0.025033807
19	0xbd19d264	-0.03755416
20	0x3d3c01e4	0.04590024
21	0xbcaeb2dc	-0.021325521
22	0xbd8d80a2	-0.069093004
23	0x3b9933a9	0.004675348
24	0x3d0e60b1	0.03476018
25	0x3b2de220	0.0026532486
26	0xbd5e715d	-0.05430733
27	0xbd941705	-0.07230953
28	0xbcdf70da	-0.027275492
29	0x3d62c5c9	0.055364404
30	0xbd4ef7e8	-0.05052939
31	0xbbc1fcbd	-0.0059200213
32	0x3c2c6a96	0.010523459
33	0xbabffa43	-0.0014646727
34	0xbcb4c8d4	-0.022068419
35	0xbd4233c4	-0.04741265
36	0xbd570df8	-0.052503556
37	0xbd5ce484	-0.053928867
38	0xbd5489c8	-0.05188921
39	0x3b8d670a	0.0043152617
40	0x3bf255c2	0.007395477
41	0x3b8e639c	0.0043453705
42	0xbd561eed	-0.052275587
43	0x3cd78616	0.026309054
44	0xbd4aa699	-0.049475286
45	0x3d32c6b5	0.043646533
46	0x3c5a5bdc	0.013327565
47	0x3d035012	0.032058783
48	0xbd6347ff	-0.055488583
49	0x3d045252	0.03230507
50	0xbb10ce4a	-0.0022095614
51	0x3c480953	0.012209254
52	0xbd0a08b8	-0.03369972
53	0x3ccfbb44	0.02535785
54	0x3c8e2ba8	0.017354801
55	0x3d1c0d0d	0.038098384
56	0xbd4fb628	-0.050710827
57	0xbd87f84e	-0.06639157
58	0xbd303b49	-0.04302529
59	0x3c666a5e	0.014063446
60	0x3d159e73	0.036528062
61	0xbc3af7b8	-0.0114116
62	0xbb2d34e0	-0.002642922
63	0xbd509d9c	-0.050931558
64	0xbd8fab6c	-0.07015118
65	0x3c8f3e95	0.017485896
66	0x3cd4893d	0.025944347
67	0xbd4898dd	-0.048973907
68	0xbd30ded2	-0.043181248
69	0xbd241204	-0.040056244
70	0x3c284d39	0.010272318
71	0xbd14e616	-0.03635224
72	0xbd4a6554	-0.04941304
73	0x3af78a22	0.0018885771
74	0xbc64d52c	-0.01396684
75	0xbd372a3b	-0.04471801
76	0xbc7c0eef	-0.01538442
77	0xbc0c66b8	-0.008569412
78	0x3d4835b3	0.048879337
79	0xbc988ee2	-0.01862282
80	0x3c0d8b49	0.008639165
81	0x3d5f6d95	0.054547865
82	0xbc2c0193	-0.010498422
83	0xbc98a3b8	-0.018632755
84	0xbd5c52bf	-0.05378985
85	0x3d0eb267	0.034838106
86	0xbc9b1ac4	-0.018933661
87	0xbd457a12	-0.04821212
88	0x3a193935	0.00058450113
89	0xbd0fc6c2	-0.03510166
90	0xbd695dc2	-0.05697418
91	0xbd07a7a2	-0.03311885
92	0xbd2d58ef	-0.04232114
93	0x3d3da3db	0.046298843
94	0xbd367ca9	-0.04455248
95	0xbd500123	-0.050782334
96	0xbd6d7dd8	-0.057981342
97	0xbd2c9a32	-0.04213924
98	0xbd8c5526	-0.06852178
99	0x3b8f2940	0.004368931
100	0xbcc1366a	-0.023585517
101	0x3ce266cb	0.027636906
102	0xbcd594b7	-0.02607189
103	0xbd192021	-0.037384156
104	0xbd6c6ac0	-0.057718992
105	0xbd91032a	-0.070806816
106	0x3d1b745e	0.037952773
107	0xbd7ea18c	-0.06216578
108	0xbd52122e	-0.05128687
109	0x3c31a2e1	0.010842056
110	0x3ca484b2	0.020082805
111	0x3d47154a	0.048604287
112	0xbce20f30	-0.027595133
113	0xbd8dfa8d	-0.069325544
114	0xbc5958b0	-0.013265774
115	0x3d184e9b	0.03718434
116	0x3a9dca00	0.001203835
117	0xbd2a3a33	-0.04155941
118	0x3d140868	0.03614083
119	0xbd1857e1	-0.037193183
120	0x399a5d39	0.00029442625
121	0xbd8290cb	-0.06375273
122	0xbca5e928	-0.02025278
123	0xb9d02715	-0.0003970197
124	0xbc3798d2	-0.011205869
125	0xbd3ddd73	-0.04635377
126	0xbc88f7aa	-0.016719658
127	0xbca8e7b8	-0.020618305
128	0x3d1ac818	0.03778848
129	0xbd739ca8	-0.05947557
130	0xbd7f44d8	-0.062321514
131	0xbd28327a	-0.041063763
132	0x3c4f6c86	0.012660151
133	0xbd16d5aa	-0.03682486
134	0xbd1a8b96	-0.037730776
135	0x3c7f3983	0.015577677
136	0x3ba94800	0.005166054
137	0x3c8cc245	0.017182479
138	0x3cb90048	0.022583142
139	0xbd103d87	-0.035214927
140	0xbc58ce48	-0.013232775
141	0x3d6e30f8	0.05815217
142	0xbc695e6d	-0.014243704
143	0xbd973c5b	-0.07384559
144	0x3ca71c32	0.020399187
145	0x3d3edc72	0.04659695
146	0xbd0fd496	-0.035114847
147	0x3bbad10d	0.0057011903
148	0x3d215079	0.039383385
149	0xbc7a1957	-0.015264831
150	0xbd1fc758	-0.03900847
151	0x3d498113	0.04919536
152	0xbcbd9450	-0.02314201
153	0xbd567dc3	-0.05236603
154	0xbd817f54	-0.06323114
155	0xbd7f0774	-0.062262967
156	0x3d25f278	0.04051444
157	0x3cd21687	0.025645507
158	0x3d2bf65e	0.041983
159	0xbcdc151f	-0.02686554
160	0xbc049ce0	-0.008094043
161	0x3cb64dac	0.022253834
162	0x3d352102	0.04422093
163	0x3c3a4932	0.01136999
164	0x3d21ca36	0.039499484
165	0x3c874564	0.01651258
166	0xbd8ca137	-0.06866687
167	0x3c6f5bec	0.014609318
168	0x3b376b40	0.002798751
169	0xbd3a75a0	-0.045522332
170	0xbcc941ab	-0.024567446
171	0xbcee246f	-0.029070107
172	0xbd44e063	-0.048065554
173	0xbc9afe50	-0.018920094
174	0xbd24b08d	-0.040207434
175	0x3d132f0f	0.03593355
176	0x3cf944a6	0.030428242
177	0xbcfe2d05	-0.031027326
178	0x3b8adab0	0.0042374954
179	0x3d243512	0.040089674
180	0xbb37e71e	-0.002806134
181	0xbd1047a3	-0.035224568
182	0x3ca3eeea	0.020011384
183	0xbd69cbc8	-0.057079107
184	0xbbd3e168	-0.0064660795
185	0x3d454424	0.048160687
186	0x3cb5a459	0.022173094
187	0x3d30ec74	0.04319425
188	0x3cf554a8	0.029947594
189	0x3ca4c232	0.02011213
190	0xbd77acde	-0.060467593
191	0x3d265831	0.04061145
192	0xbd18602d	-0.037201095
193	0xbd425390	-0.047442973
194	0xbc364710	-0.011125341
195	0xbda43681	-0.08018208
196	0xbcf0143a	-0.02930652
197	0x3d16a0a4	0.036774293
198	0xbd5cc4c8	-0.053898603
199	0x3c05916d	0.008152348
200	0x3d4004ce	0.046879582
201	0x3c2bcb33	0.010485458
202	0x3d0a6c69	0.033794794
203	0x3d443894	0.04790552
204	0xbb2685f0	-0.0025409423
205	0x3c7ee467	0.015557385
206	0xbd0d49de	-0.034494273
207	0xbd344606	-0.044012092
208	0xbc7b463b	-0.0153365685
209	0xbd4bc726	-0.04975047
210	0x3c834bef	0.016027419
211	0x3d39d0a1	0.04536498
212	0x3d24d5b0	0.04024285
213	0xbcbede18	-0.023299262
214	0xbd09e484	-0.033665195
215	0x3d49f4b1	0.04930562
216	0xbd898033	-0.06713905
217	0x3d0409d2	0.032235928
218	0xbd058ef8	-0.03260705
219	0xbd6a6120	-0.057221532
220	0x3d1f3180	0.038865566
221	0x3d5e96b9	0.05434296
222	0x3d5fa529	0.05460087
223	0x3c63c4b4	0.013901878
224	0xbd23a423	-0.039951455
225	0xbd8924e8	-0.066964924
226	0xbd85ea93	-0.06538882
227	0xbd55c83f	-0.052192923
228	0x3c2d4d57	0.010577521
229	0xbd322137	-0.043488707
230	0xbccafb33	-0.024777984
231	0xbd2d0d24	-0.04224886
232	0x3d0f1d4b	0.034940045
233	0x3d3e733c	0.046496615
234	0x3d3f611f	0.04672348
235	0xbd5d272f	-0.053992447
236	0xbd7c5ee6	-0.06161394
237	0x3d26789d	0.04064237
238	0xbdaa060c	-0.083019346
239	0x3cbfb7a8	0.023403004
240	0xbc1e9ffd	-0.009681699
241	0xbd936ab0	-0.071980834
242	0xbd5ebe8e	-0.054380946
243	0x3d44931e	0.047991864
244	0xbd90eb51	-0.07076133
245	0xbc9a4fcc	-0.018836878
246	0xbd9a5ae0	-0.07536864
247	0xbd530549	-0.051518712
248	0xbc993a46	-0.018704545
249	0x3cd2fb7c	0.025754683
250	0xbd78628c	-0.060640857
251	0xbc4e39f0	-0.012587056
252	0x3cec749e	0.028864201
253	0xbcd3a8e1	-0.025837364
254	0x3c800ae7	0.015630199
255	0xbbebc363	-0.007194923

fc2.bias f4 [256]
0	0xbd75072b	-0.05982129
1	0x3ce48963	0.027897542
2	0x3d3eba1c	0.046564206
3	0xbd592946	-0.053017877
4	0xbd8160a6	-0.06317262
5	0xbd9ad015	-0.0755922
6	0x3d05d603	0.0326748
7	0x3ddf5468	0.10904771
8	0x3d2e85af	0.04260796
9	0x3d9ccbbb	0.07656046
10	0x3d065850	0.032799065
11	0x3e80f914	0.25190032
12	0xbc959bc5	-0.018262753
13	0xbd209b37	-0.039210524
14	0x3d40c676	0.047064267
15	0xbd19e6a2	-0.037573464
16	0xbcf76309	-0.03019859
17	0x3d2cba9b	0.04217015
18	0xbd706451	-0.05868942
19	0x39faabb5	0.00047811648
20	0x3d740ed3	0.05958445
21	0xbb68fa07	-0.0035549419
22	0x3e256cf7	0.16154848
23	0xbca129dd	-0.019673282
24	0x3ca0df00	0.019637585
25	0xbd2330c9	-0.039841447
26	0x3d9e9f6c	0.07745251
27	0x3c744ecc	0.014911365
28	0x3cf13300	0.029443264
29	0x3c35f97e	0.011106847
30	0xbd05b930	-0.03264731
31	0xbd0a8628	-0.033819348
32	0x3cc77912	0.024349723
33	0x3cdd34e9	0.027002769
34	0x3acc5343	0.0015588779
35	0x3dc91bdc	0.09819767
36	0xbc5966c0	-0.013269126
37	0xbcc2e919	-0.02379279
38	0xbc530472	-0.012879478
39	0xbd7f5d66	-0.06234493
40	0x3bffd387	0.0078071984
41	0xb98d3832	-0.00026935484
42	0xbd881361	-0.06644321
43	0xbd914250	-0.07092726
44	0x3d4d95f7	0.050191846
45	0xbcf9b92d	-0.030483807
46	0xbcfe1e9d	-0.031020457
47	0x3a5f077b	0.00085078896
48	0x3e27cde9	0.16387142
49	0xbccd1bbe	-0.025037643
50	0xbd9b8c04	-0.07595065
51	0x3c27542d	0.01021294
52	0xbcc7d59b	-0.024393847
53	0xbd819f90	-0.06329262
54	0xbbe7eac1	-0.0070775454
55	0xbc11ea6d	-0.008905989
56	0x3d2244ee	0.039616518
57	0x3b7f96b3	0.0038999736
58	0xbd2a4e80	-0.04157877
59	0xbcde61a2	-0.027146164
60	0x3cd41d00	0.025892735
61	0xbd84ba01	-0.0648079
62	0x3d05147f	0.03249025
63	0xbd20b393	-0.039233755
64	0xbd680f9f	-0.056655522
65	0x3bae18f7	0.0053130346
66	0x3cc375b9	0.023859845
67	0x3c7553d7	0.014973602
68	0xbd8b870f	-0.0681287
69	0xbcbfd3a7	-0.023416353
70	0x3c550a86	0.013002997
71	0x3c5bd3e4	0.013417218
72	0x3c4eed7b	0.012629862
73	0x3da5d9e8	0.08098203
74	0xbcfcd864	-0.030864902
75	0xbc0978a8	-0.008390583
76	0xbd3edc6a	-0.046596922
77	0xbafdd1c7	-0.0019364887
78	0x3a65d5a8	0.0008767494
79	0xbd8a6cc7	-0.06759029
80	0xbc1248a0	-0.008928448
81	0x3d93e394	0.072211415
82	0xbd5152a6	-0.05110421
83	0xbd8b39c6	-0.06798129
84	0xbd5c202f	-0.05374163
85	0x3cd80e69	0.026374059
86	0x3c16bfc9	0.009200999
87	0x3d97eedd	0.074186064
88	0x3c5d058b	0.013490091
89	0x3d65417f	0.055970665
90	0xbba7fb20	-0.005126372
91	0xbd491a43	-0.04909731
92	0x3d749fda	0.05972276
93	0xbcfe5652	-0.03104702
94	0xbdc5532a	-0.09635003
95	0x3c7630ef	0.015026315
96	0xbcacd270	-0.021096438
97	0x3c8071d7	0.015679283
98	0xbd363158	-0.04448065
99	0x3d32657a	0.043553807
100	0x3caba0b3	0.02095065
101	0x3d9824ec	0.07428917
102	0xbd8243b7	-0.06360572
103	0xbd335eb4	-0.043791488
104	0xbcbd6aa4	-0.02312214
105	0xbb1b326f	-0.0023681184
106	0xbd605810	-0.054771483
107	0x3d3e2f10	0.0464316
108	0xbbd5fb78	-0.0065302216
109	0x3d1e7847	0.038688924
110	0xbd4aef01	-0.049544338
111	0x3c78700b	0.015163432
112	0xbda79cc5	-0.08184198
113	0x3d2e9daf	0.042630848
114	0xbcc569f8	-0.024098381
115	0x3d074d6c	0.03303282
116	0xbba84b89	-0.0051359576
117	0x3d426c21	0.0474664
118	0xbd8948e9	-0.0670336
119	0x3c3e7d9a	0.011626625
120	0x3e3f6cc0	0.18693829
121	0x3dfa4f63	0.12222173
122	0x3c97da6a	0.018536765
123	0xbc8ba4ba	-0.017046321
124	0x3cdc7a25	0.026913712
125	0x3b00c25b	0.0019647095
126	0x3ac28950	0.0014841948
127	0xbd1977cf	-0.037467774
128	0xbd085342	-0.033282526
129	0xbde54539	-0.11194844
130	0xbc039f0e	-0.008033527
131	0x3def52e4	0.11685732
132	0xbd8313e8	-0.06400281
133	0x3dc5e82a	0.096634224
134	0xbc223286	-0.009899741
135	0xbcace26f	-0.021104066
136	0xbd8e6fb6	-0.06954901
137	0xbc0f60a3	-0.008751067
138	0x3d82490a	0.06361587
139	0x3d81cc15	0.06337754
140	0x3d49f73b	0.049308043
141	0x3e15ac48	0.14616501
142	0xbd0768ee	-0.033059053
143	0x3c0b9a33	0.008520651
144	0xbc6f0a8c	-0.014589917
145	0x3c80a2a3	0.015702551
146	0xbcfd3429	-0.030908661
147	0x3a785748	0.0009473455
148	0xbc13a9be	-0.009012638
149	0xbdb7d470	-0.08976066
150	0xbd839943	-0.06425717
151	0xbd6c75af	-0.05772942
152	0x3e002fef	0.12518285
153	0xbd45c90c	-0.048287436
154	0x3bf60856	0.007508318
155	0x39e15c69	0.00042984195
156	0xbd5d5d65	-0.054044146
157	0x3ce294e5	0.02765889
158	0xbcf7bf15	-0.030242482
159	0xbd0406db	-0.0322331
160	0x3d6823f8	0.056674927
161	0x3c403df1	0.011733518
162	0x3d71d97b	0.059045296
163	0xbcc2be37	-0.023772342
164	0x3d1facb8	0.038983077
165	0xbd996e8a	-0.07491787
166	0xbc976146	-0.018479
167	0xbb29627c	-0.0025846055
168	0x3c930b5b	0.01794975
169	0xbbcdf1e4	-0.006284939
170	0xbd65330d	-0.05595689
171	0xbc9792db	-0.018502643
172	0x3d33f1f5	0.04393192
173	0xbd64b66d	-0.055838037
174	0xbd38fde2	-0.045163997
175	0xbc649487	-0.013951427
176	0x3c8fc068	0.017547801
177	0xbd021e9f	-0.031767484
178	0x3decc113	0.115602635
179	0x3dfdaecd	0.12386856
180	0x3c000690	0.007814065
181	0x3ddf9040	0.109161854
182	0xbcc4c23d	-0.024018401
183	0x3e343895	0.1759971
184	0xbce9475a	-0.028476406
185	0xbda94c9d	-0.08266566
186	0x3dcd793d	0.1003289
187	0xbd62b66d	-0.055349756
188	0xbd005c72	-0.031338163
189	0x3cf048ac	0.029331528
190	0xbc5ce2c1	-0.013481797
191	0xbd062bc8	-0.032756597
192	0x3df03dc3	0.1173053
193	0xbd7ff01c	-0.062484846
194	0x3e21f72c	0.15816945
195	0x3ceff9e5	0.029293964
196	0xbcd7fc2c	-0.026365362
197	0xbc5e49b0	-0.013567373
198	0xbd84f4c3	-0.06491997
199	0x3dc38cd1	0.09548343
200	0x3d915339	0.070959516
201	0xbba55559	-0.0050455746
202	0xbd5a004a	-0.053222932
203	0x3c9a3f1c	0.018828921
204	0x3c7a43b8	0.0152749345
205	0xbd31ebc4	-0.043437734
206	0xbd100423	-0.035160195
207	0xbd354839	-0.04425833
208	0xbd3b6ba0	-0.045756936
209	0x3d468d82	0.048474796
210	0x3c7462df	0.014916151
211	0xbdd2d739	-0.10294957
212	0xbc19ebc9	-0.0093945945
213	0xbc7cdad8	-0.015433036
214	0xbd9b7d52	-0.07592262
215	0x3d41b00e	0.04728704
216	0x3bcdb215	0.0062773325
217	0xbd49fb4e	-0.04931193
218	0xbd8e16d1	-0.06937946
219	0xbc72a690	-0.014810219
220	0x3d00fed0	0.031493008
221	0xbdc4351f	-0.095804445
222	0xbd0c7aee	-0.034296922
223	0x3c9895e7	0.018626167
224	0xbbe3c25a	-0.0069506587
225	0x3cbffb38	0.02343522
226	0x3b70c252	0.0036736918
227	0x3df12628	0.11774856
228	0x3deb0297	0.11475103
229	0x3e1bca80	0.15213966
230	0x3d4fc1bf	0.05072188
231	0xbd48ec16	-0.049053274
232	0x3cae35b2	0.021265838
233	0xbbae76ad	-0.005324206
234	0x3bbabf33	0.0056990623
235	0x3d32d71b	0.04366217
236	0x3dede368	0.1161564
237	0x3d5168a2	0.051125176
238	0x3a33ce2b	0.00068590295
239	0xbd4d52e7	-0.05012789
240	0x3ab3e9b2	0.0013726263
241	0x3e61977a	0.2203044
242	0xbc35444a	-0.011063645
243	0x3d0b39dd	0.03399073
244	0xbc91964a	-0.017771859
245	0xbdb80b57	-0.08986538
246	0xbc5ee013	-0.013603228
247	0x3c959a86	0.01826216
248	0xbbfea235	-0.0077708014
249	0x3d0cfbe9	0.034419928
250	0xbc87e761	-0.016589822
251	0x3da8cf20	0.08242631
252	0xbcea236b	-0.028581342
253	0x3b81bd38	0.003959324
254	0xbc0d5b0c	-0.008627664
255	0xbd3a9abd	-0.045557726

fc_value.weight f4 [128, 256]
0	0x3cab1b0c	0.02088692
1	0xbca8bd2c	-0.020598017
2	0x3dd5ed7b	0.104456864
3	0xbc414248	-0.011795588
4	0x3cdcea00	0.026967049
5	0x3c112808	0.008859642
6	0xbd42e967	-0.04758587
7	0xbe853138	-0.26014113
8	0xbb9f0b75	-0.0048536607
9	0xbec7a9f3	-0.38996848
10	0xbc40c7e8	-0.011766411
11	0x3e151f88	0.1456281
12	0xbd096ea4	-0.03355278
13	0xbbbde670	-0.0057952926
14	0x3c5443f6	0.012955656
15	0xbdbd118a	-0.09231861
16	0xbd53834a	-0.05163888
17	0xbb8a2313	-0.004215607
18	0x3d16dbc8	0.036830693
19	0xbd1d5f56	-0.038420998
20	0xbe2da072	-0.16955736
21	0xbc9c0525	-0.019045422
22	0xbee76183	-0.45191583
23	0x3ced9d62	0.02900571
24	0xbcb93416	-0.022607844
25	0x3d7a3136	0.061082087
26	0xbee95256	-0.4557063
27	0xbd620606	-0.055181526
28	0xbd36de00	-0.04464531
29	0x3e766c5c	0.24064773
30	0x3d1fe43a	0.039036013
31	0xbe159bd8	-0.14610231
32	0xbcf9a424	-0.030473776
33	0xbcde52e8	-0.027139142
34	0xbd1788c2	-0.036995657
35	0x3cdf9a16	0.027295154
36	0xbd3405a2	-0.043950684
37	0xbcf5d3fa	-0.030008305
38	0x3c90d12b	0.017677864
39	0xbb2422fc	-0.0025045266
40	0xbcd80341	-0.02636874
41	0x3d79bc0a	0.060970344
42	0xbd6ce13c	-0.057831988
43	0x3e89ca50	0.26912165
44	0xbf0a0b36	-0.53923357
45	0xbc5aa6ae	-0.013345404
46	0x3d888350	0.06665671
47	0xbccfab7d	-0.025350327
48	0xbda34fbd	-0.07974193
49	0x3cf663af	0.03007683
50	0xbd135ee7	-0.035979178
51	0xbd08cb57	-0.033397045
52	0x3c81de9b	0.015853217
53	0xbd5a1524	-0.053242818
54	0x3d1a49a8	0.0376679
55	0xbd9acba4	-0.075583726
56	0xbd80414b	-0.06262454
57	0x3b80742d	0.003920099
58	0x3d28f7ad	0.041251827
59	0xbd01ca4a	-0.03168706
60	0x3d6214f6	0.05519577
61	0xbd1da9ba	-0.038491942
62	0xbd363665	-0.04448547
63	0x3c7ca500	0.015420198
64	0x3e23e9cb	0.16007154
65	0x3d6c9a54	0.057764366
66	0x3d6f821e	0.0584737
67	0x3dae5c20	0.08513665
68	0xbf1ed840	-0.6204872
69	0xbbad9366	-0.0052971123
70	0x3c91c3ee	0.017793622
71	0x3e801c83	0.25021753
72	0x3d0fe5f3	0.035131406
73	0x3e6f9aa7	0.23398839
74	0x3d9292a8	0.07156879
75	0xbc86beef	-0.016448466
76	0x3d323abd	0.04351305
77	0xbcec5da9	-0.028853254
78	0x3a52aace	0.0008036316
79	0x3a9065c0	0.0011016652
80	0xbd63dcbe	-0.055630438
81	0xbf11e641	-0.56991965
82	0xbde955ca	-0.11393316
83	0x3cd7bca5	0.02633507
84	0x3bf3ec0f	0.007443912
85	0x3d59169b	0.053000074
86	0xbdca4f97	-0.09878462
87	0x3cb97a7d	0.022641415
88	0xbe888fbe	-0.26672167
89	0xbeccd3cc	-0.40005338
90	0xbca5e668	-0.020251468
91	0x3d1031a7	0.035203602
92	0x3cfbd79c	0.030742459
93	0xbd187ba7	-0.0372273
94	0xbd627e6a	-0.05529634
95	0xbbaf768b	-0.0053547076
96	0x3c9e447b	0.019319763
97	0xbd0c6828	-0.03427902
98	0xbd8ad850	-0.067795396
99	0xbcad97bd	-0.021190519
100	0x3c8b3320	0.016992152
101	0x3d24c8b4	0.040230468
102	0xbcd1809d	-0.025574023
103	0x3d11053c	0.035405383
104	0x3c28c411	0.010300652
105	0xbc9691fc	-0.018380158
106	0xbe3bbb37	-0.18333136
107	0xbe11abde	-0.14225718
108	0x3d5f9ce2	0.054592974
109	0xbc8b7834	-0.01702509
110	0xbd451cea	-0.048123278
111	0x3db2903e	0.08718918
112	0xbd04b7e8	-0.03240195
113	0x3f1a8651	0.603612
114	0x3d472323	0.048617493
115	0xbef462f4	-0.47731745
116	0x3ce32dc6	0.027731787
117	0xbc9501c7	-0.018189324
118	0xbb861d10	-0.00409282
119	0xbd418a60	-0.047251105
120	0xbda88d08	-0.082300246
121	0xbf08ef0a	-0.53489745
122	0xbf742f58	-0.9538474
123	0x3c7747d8	0.0150928125
124	0x3c289146	0.010288542
125	0x3ce542ab	0.027985891
126	0xbcccbba0	-0.02499181
127	0xbbc5b88e	-0.0060339635
128	0x3cd4f771	0.025996896
129	0xbecccaa8	-0.39998364
130	0xbc91f0ae	-0.01781496
131	0xbea09157	-0.31360886
132	0x3d6f379f	0.058402654
133	0x3d4a9fd2	0.049468823
134	0xbe35222b	-0.17688815
135	0xbe1a76d4	-0.15084392
136	0x3d28cefd	0.041213024
137	0xbb96d363	-0.004602836
138	0x3e13f645	0.14449413
139	0x3d389d43	0.04507185
140	0xbc13f92d	-0.009031576
141	0xbd1f50b4	-0.038895324
142	0x3d2fc0f2	0.042908616
143	0xbdd227cd	-0.10261498
144	0xbc636722	-0.013879569
145	0xbdbeae00	-0.093105316
146	0xbf36cd57	-0.71407074
147	0x3e0908f5	0.13382323
148	0x3d08ee44	0.033430353
149	0xbef24d19	-0.47324446
150	0x3a5ca644	0.00084171095
151	0xbd7f10a0	-0.062271714
152	0x3dd97493	0.10617938
153	0x3d7ead2a	0.06217686
154	0xbe29db61	-0.16587593
155	0x3e7dfa4e	0.24802515
156	0x3d02ae39	0.031904433
157	0xbd687914	-0.056756094
158	0xbbdb4f27	-0.0066927853
159	0xbcbb86ab	-0.022891363
160	0xbd691988	-0.056909114
161	0x3ca5085f	0.020145593
162	0xbe4e1e93	-0.2012885
163	0x3f087b21	0.5331288
164	0x3d0d4506	0.034489654
165	0xbd5372c7	-0.051623132
166	0x3e00f2ed	0.12592669
167	0xba409813	-0.00073468796
168	0xbbcf6878	-0.0063295923
169	0x3d4c1325	0.049822945
170	0xbae5abfa	-0.0017522566
171	0xbb0fec52	-0.0021960926
172	0xbd4eaa5a	-0.05045543
173	0x3e897df5	0.2685391
174	0x3d2ed99c	0.042687997
175	0x3d144bf3	0.036205243
176	0xbae19f3a	-0.0017213591
177	0x3b0e4f50	0.0021714754
178	0xbf31eab3	-0.6949875
179	0x3e951a28	0.29121518
180	0xbd09eeec	-0.03367512
181	0x3e4f865c	0.20266098
182	0x3d5ebc9d	0.054379094
183	0xbeb2c516	-0.3491599
184	0xbcc6ce57	-0.024268312
185	0x3d289df6	0.04116627
186	0xbe18df23	-0.1492887
187	0x3ca4eca5	0.020132372
188	0xbcfaa0b2	-0.030594204
189	0x3d4fc733	0.05072708
190	0x3d0dd118	0.034623235
191	0xbd575c91	-0.052578513
192	0xbdf1d6bb	-0.11808535
193	0x3d28b1e4	0.041185275
194	0xbc67ed2a	-0.014155665
195	0x3d4702c2	0.048586614
196	0xbd15b3ac	-0.0365483
197	0xbdb84044	-0.08996633
198	0xbc516e79	-0.012782686
199	0xbef6bf7d	-0.4819297
200	0xbf49f36a	-0.78887045
201	0xbd896549	-0.06708772
202	0xbe3dd465	-0.18538053
203	0xbc879474	-0.01655028
204	0xbd95cf78	-0.07314962
205	0x3b3268e0	0.0027223155
206	0x3d4b8191	0.04968411
207	0x3d7ef05e	0.06224095
208	0x3c50ac7d	0.012736437
209	0x3d73e360	0.059543014
210	0xbcc200c7	-0.023682011
211	0xbdf8da98	-0.121510684
212	0xbd30c9fc	-0.043161377
213	0x3d6520c2	0.055939443
214	0xbce5b5c8	-0.028040782
215	0xbc8087b5	-0.01568971
216	0xbd2a61b5	-0.041597087
217	0xbccf4b9a	-0.025304604
218	0x3c68acf8	0.014201395
219	0xbd89a821	-0.06721521
220	0x3d4084f8	0.04700181
221	0x3d4f16b8	0.050558776
222	0x3cc330b2	0.02382693
223	0xbd5ed6e5	-0.05440416
224	0xbb5c7093	-0.0033636435
225	0x3d26ec18	0.0407525
226	0xbdc15acb	-0.094411455
227	0xbdcdc9ca	-0.10048254
228	0xbf4ec601	-0.8077088
229	0xbf19f61f	-0.60141176
230	0xbeb57994	-0.3544432
231	0xbe34d282	-0.17658427
232	0x3ceb3dab	0.028715929
233	0xbb4c69d9	-0.003119102
234	0xbd5d6e3d	-0.05406021
235	0xbd160fd3	-0.036636185
236	0xbe11b14f	-0.14227794
237	0xbc38dffa	-0.011283869
238	0xbcb1ca38	-0.02170287
239	0x3d5527dc	0.052039966
240	0xbdacb251	-0.08432449
241	0x3ddcdd90	0.10784447
242	0x3d7080bb	0.058716517
243	0xbd2d2c3c	-0.042278513
244	0x3d809c8d	0.0627986
245	0xbd0abcda	-0.03387151
246	0x3d44f5fc	0.04808615
247	0xbd00c7ba	-0.031440474
248	0x3e0172ae	0.12641403
249	0xbd644ea4	-0.05573906
250	0x3d612fd9	0.05497727
251	0xbeb784e5	-0.35843578
252	0xbd6d26c0	-0.057898283
253	0xbd19d1f4	-0.037553743
254	0x3c0365fc	0.00801992
255	0x3cd19258	0.025582477

fc_value.bias f4 [128]
0	0x3dbf8cef	0.09353053
1	0xbd94b841	-0.07261706
2	0x3e047c79	0.12938108
3	0xbd08d51a	-0.033406354
4	0x3dbeb774	0.09312335
5	0x3e609575	0.21932013
6	0x3e574c81	0.21025278
7	0x3d604093	0.054749083
8	0xbe0947a8	-0.13406241
9	0xbc571b30	-0.013129041
10	0x3c0f84be	0.008759676
11	0xbd5af6fa	-0.05345819
12	0x3d2d41cf	0.042299088
13	0xbe024c34	-0.12724382
14	0x3cd5048f	0.02600315
15	0xbd25918a	-0.040422
16	0xbcde0909	-0.027103918
17	0xbd8cf071	-0.06881798
18	0x3d74fd54	0.059811905
19	0xbe164dac	-0.14678067
20	0x3dff0876	0.12452786
21	0x3e3397c1	0.17538358
22	0xbd2a8d9a	-0.041638948
23	0xbd7aa68f	-0.061194
24	0x3e25855a	0.16164151
25	0xbb9d83ea	-0.004806985
26	0x3e10cfc3	0.14141755
27	0x3c5ad495	0.013356348
28	0x3c3d059c	0.011536982
29	0x3deb623c	0.11493346
30	0xbad2520b	-0.0016046179
31	0x3bad46ae	0.0052879667
32	0x3e2ecb89	0.1706983
33	0x3ca71ef6	0.020400506
34	0xbda42d8a	-0.080164984
35	0xbd61be43	-0.05511309
36	0x3e1d2fac	0.15350217
37	0x3e0f2c57	0.13981758
38	0x3e711e1e	0.23546645
39	0x3cd9ad89	0.026572006
40	0x3e52e878	0.20596492
41	0xbdabf3e7	-0.0839613
42	0x3c5baca4	0.01340786
43	0x3e73d513	0.2381175
44	0xbd97e8a7	-0.07417422
45	0x3d290133	0.04126091
46	0x3cef9efd	0.029250616
47	0xbd06c84f	-0.032905873
48	0xbcd6c31a	-0.026216079
49	0xbd3fe327	-0.04684749
50	0xbcdd5d20	-0.027021945
51	0xbcb3c3c1	-0.021943929
52	0x3d72a8f7	0.05924317
53	0x3e917f6c	0.28417528
54	0xbd92a259	-0.071598716
55	0x3e208438	0.15675437
56	0x3e4e1d27	0.20128308
57	0x3dd39313	0.103307866
58	0xbd5ec4a2	-0.054386742
59	0x3e103f9c	0.14086765
60	0x3cd21a8c	0.025647424
61	0xbd937511	-0.07200063
62	0x3e6c8037	0.23095785
63	0x3db0d6a2	0.08634688
64	0x3de50c30	0.11183965
65	0xbd6f4de6	-0.0584239
66	0xbdda9977	-0.10673802
67	0xbc3552c0	-0.011067092
68	0x3d8eabdb	0.069663726
69	0x3d223bae	0.039607696
70	0x3c657270	0.014004335
71	0xbd8bb8c2	-0.06822349
72	0x3cf3c1d4	0.02975551
73	0x3dc1ca17	0.09462374
74	0x3c215af1	0.009848342
75	0x3e0bc0f0	0.13647819
76	0x3e51e2d4	0.20496684
77	0x3bdfb30e	0.006826765
78	0x3ba39f4f	0.0049933563
79	0x3c606db7	0.013698033
80	0xbc532460	-0.01288709
81	0x3c8dcb6e	0.017308917
82	0xbd3124ad	-0.043247867
83	0xbc8d9f45	-0.01728786
84	0xbd1a2e59	-0.037641857
85	0x3d830662	0.06397702
86	0xbd9de7d8	-0.07710236
87	0x3bed4ac0	0.007241577
88	0x3d4a3500	0.04936695
89	0x3df1a352	0.11798729
90	0xbd171ab4	-0.0368907
91	0x3d85e579	0.06537909
92	0x3cc27f85	0.023742447
93	0xbda3bc59	-0.07994909
94	0x3d20d0d1	0.039261643
95	0xbd206794	-0.03916128
96	0x3da6a1a5	0.081363
97	0x3d271249	0.040788922
98	0x3e4b3d46	0.19847593
99	0xbd93010c	-0.07177934
100	0x3e088bf2	0.13334635
101	0x3e1f4f01	0.15557481
102	0x3e70b63c	0.23507017
103	0x3e578349	0.21046175
104	0xbd24709b	-0.04014645
105	0x3e62f61e	0.22164199
106	0xbd74f86a	-0.05980722
107	0xbda5298d	-0.08064566
108	0xbd687bcf	-0.056758698
109	0xbd2ee894	-0.042702273
110	0x3e75f7d4	0.2402032
111	0xbb0542e7	-0.0020334066
112	0xbdfc5b4b	-0.123221
113	0xbd672ae0	-0.056437373
114	0xbc71b2d1	-0.014752106
115	0x3e4a7c7d	0.19774051
116	0xbd2f446c	-0.04278986
117	0xbe048c9d	-0.12944265
118	0x3de77ad9	0.11302728
119	0xbc2c926f	-0.010532959
120	0x3dd249d5	0.102679886
121	0x3c1a030d	0.009400141
122	0x3db0c60c	0.086315244
123	0x3d16170a	0.036643066
124	0xbd883e85	-0.0665255
125	0xbd2397d3	-0.039939713
126	0xbcbaaf08	-0.02278854
127	0xbd7e4cf4	-0.062085107

out_value.weight f4 [1, 128]
0	0xbf877749	-1.0583278
1	0x3b3aed9e	0.0028522979
2	0x3e493844	0.1965037
3	0x3d51ef6a	0.051253714
4	0xbf9e76ef	-1.2380046
5	0xbeec68c8	-0.46173692
6	0x3e7fe852	0.24990967
7	0xbf73d8cd	-0.95252687
8	0xbe8eab00	-0.27864838
9	0xbf785927	-0.97011036
10	0xbe531e29	-0.20616974
11	0x3c4c72c4	0.012478534
12	0xbe569909	-0.20956816
13	0x3c1de367	0.0096367365
14	0xbe6612ca	-0.22468105
15	0xbd4eabbd	-0.05045675
16	0x3ccdfeb2	0.025145862
17	0x3d5d39d5	0.05401023
18	0xbf86bf5c	-1.0527148
19	0x3cc28edf	0.023749767
20	0xbf17e211	-0.59329325
21	0xbecfd85c	-0.40594757
22	0xbd6c137e	-0.057635777
23	0xbe4d94b8	-0.20076263
24	0xbf08daa1	-0.534586
25	0xbf287d66	-0.6581634
26	0xbfac111c	-1.3442721
27	0xbacd20c9	-0.001565003
28	0x3a89e72e	0.0010521167
29	0x3dd0db96	0.10198133
30	0xbe154245	-0.14576061
31	0xbe49069f	-0.19631432
32	0x3e9bb3dd	0.30410662
33	0xbe3e4989	-0.18582739
34	0xba60ee3c	-0.00085804216
35	0x3d32faf0	0.043696344
36	0xbfa95963	-1.3230404
37	0x3eaa70e7	0.33289263
38	0x3e9c877c	0.30572116
39	0x3d602f36	0.054732524
40	0x3ddef3e4	0.10886362
41	0x3a4cc95f	0.0007811989
42	0xbe590913	-0.21194868
43	0xbeb36d7f	-0.35044476
44	0x3b0ed1fb	0.0021792639
45	0xbe5b7b52	-0.21433762
46	0x3db82e41	0.08993197
47	0xbf821e22	-1.0165446
48	0xbbcc5838	-0.0062361024
49	0xbc936de0	-0.017996728
50	0xbe11a072	-0.14221361
51	0xbcb4f7e2	-0.022090856
52	0xbe5770f0	-0.21039176
53	0x3eb8be76	0.3608281
54	0x3b81f641	0.0039661233
55	0xbf3571cd	-0.7087677
56	0xbeb1e739	-0.3474672
57	0xbf0b9e9f	-0.5453891
58	0x3adb0d3e	0.001671232
59	0xbe8511ba	-0.25990087
60	0xbbed4328	-0.0072406717
61	0xbe00b2c8	-0.125682
62	0x3ea97fdd	0.33105364
63	0x3e060f29	0.1309172
64	0xbe867f23	-0.26268873
65	0xbbb9a6fb	-0.0056656576
66	0xbeaf4b60	-0.34237194
67	0x3c6c9986	0.0144409
68	0xbe93b9ec	-0.28852785
69	0xbf46e487	-0.77692455
70	0xbd5b22e0	-0.053500056
71	0x3d9f15ff	0.07767867
72	0xbe70ff7b	-0.23534958
73	0xbe609e8f	-0.21935485
74	0xbc40fb83	-0.011778715
75	0x3e333842	0.1750193
76	0xbea0847d	-0.3135108
77	0xbe41c5db	-0.18923132
78	0xbb693ac1	-0.0035587999
79	0x3ba91c89	0.0051608724
80	0x3d05edaf	0.032697376
81	0x3c9531a1	0.018212141
82	0x3d44d157	0.048051205
83	0xbe03ec31	-0.12883069
84	0x3c9473d6	0.018121641
85	0xbe5f06e7	-0.21779977
86	0x3c07cf3b	0.008289154
87	0x3c010187	0.007873899
88	0xbe5de87d	-0.21670718
89	0xbeea514b	-0.45765147
90	0x3d55eddc	0.052228794
91	0xbe8375e7	-0.2567589
92	0x3c2c516c	0.010517459
93	0xba579131	-0.00082232343
94	0xbe6f68bd	-0.23379798
95	0xbb4798fa	-0.0030456171
96	0xbf6ea681	-0.93222815
97	0x3d3a8de4	0.045545474
98	0xbefa761a	-0.4891823
99	0xbcd13258	-0.025536701
100	0xbf0e877c	-0.5567548
101	0xbf620585	-0.8828967
102	0x3ec0618a	0.37574416
103	0x3ea497e5	0.32147136
104	0x3d553408	0.052051574
105	0x3e479c0b	0.1949312
106	0x3ba2a0a4	0.0049629975
107	0xbd2d3f4b	-0.04229669
108	0x3d610fa6	0.054946564
109	0xbe7b9079	-0.2456683
110	0x3ed3d856	0.4137599
111	0x3be04946	0.0068446724
112	0xbcd57785	-0.026057968
113	0xbc6a1a9d	-0.014288572
114	0xbf743f1a	-0.95408785
115	0xbf0bf4b5	-0.5467027
116	0xbe2c8e53	-0.16851167
117	0xbe81d9b3	-0.25361404
118	0x3db0346d	0.086037494
119	0xbe7aeec6	-0.24505147
120	0x3e91599d	0.28388682
121	0xbe92bddc	-0.28660476
122	0xbf64f7fd	-0.894409
123	0xbac0ccf5	-0.001470952
124	0x3b79c2b0	0.0038110428
125	0x3d6d0d2a	0.057873882
126	0x3d77d7d6	0.06050857
127	0xbf7f3ab8	-0.9969897

fc_advantage.weight f4 [128, 256]
0	0xbbeae7b8	-0.0071687363
1	0x3c91aa34	0.017781354
2	0xbf82e812	-1.0227072
3	0x3d511dda	0.05105386
4	0xbcbdffe4	-0.023193307
5	0xbb9b177a	-0.0047330232
6	0x3c848aed	0.016179526
7	0x3cd79ee1	0.026320877
8	0x3d49fc4e	0.049312882
9	0x3f85f566	1.0465515
10	0x3d3f9727	0.04677501
11	0xbc4c6a92	-0.01247658
12	0x3d3ce4b2	0.04611654
13	0xbd7a5dea	-0.06112472
14	0x3d67a099	0.056549642
15	0xbc97c830	-0.018528074
16	0xbc5ebb29	-0.013594427
17	0x3ce92895	0.028461734
18	0xbd27e795	-0.04099234
19	0x3c6f578a	0.014608273
20	0x3e5f3b9e	0.21800086
21	0x3dc326de	0.09528898
22	0xbfadf0a7	-1.3589066
23	0xbeb72228	-0.35768247
24	0xbb9c9079	-0.0047779647
25	0xbce62691	-0.028094562
26	0x3e568939	0.20950784
27	0x3d20bcec	0.03924267
28	0xbd7f9f42	-0.06240774
29	0x3db8b517	0.09018915
30	0x3c6768fc	0.014124151
31	0x3e67e788	0.22646916
32	0xbcfcf59d	-0.030878836
33	0x3ce6fbe8	0.02819629
34	0xbd07c8c2	-0.033150442
35	0xbeb800a5	-0.35937992
36	0x3c5dfab4	0.013548542
37	0xbc8efeed	-0.017455542
38	0x3ca2e1e9	0.019883113
39	0x3ca14b15	0.019689122
40	0x3c01c331	0.007920072
41	0xbcc228d8	-0.023701116
42	0xbc0eccb0	-0.0087157935
43	0xbe30ea81	-0.17276956
44	0x3bd765ff	0.006573438
45	0xbd70652a	-0.058690228
46	0xbd5ecbca	-0.054393567
47	0x3adb4dbf	0.0016731544
48	0xbe87f933	-0.2655731
49	0xbc0cbb51	-0.008589582
50	0x3e0a5933	0.1351059
51	0x3cf9cfe8	0.030494645
52	0x3e046ade	0.12931392
53	0x3d9c3a08	0.07628256
54	0xbb826b3c	-0.0039800685
55	0x3b263aba	0.0025364594
56	0xbce7c6a4	-0.028292961
57	0xbee259d8	-0.4420917
58	0xbd1fe7c7	-0.0390394
59	0xbb9878fb	-0.004653094
60	0x3d170846	0.036873125
61	0x3c9bf724	0.019038744
62	0xbce0edb6	-0.0274571
63	0x3cdf2a48	0.027241841
64	0x3da280f7	0.07934754
65	0x3d5bdb50	0.05367595
66	0xbd3cadfe	-0.04606437
67	0x3e44dea4	0.19225556
68	0xbddc91e2	-0.107700124
69	0x3cd0827a	0.025452841
70	0x3d200bfa	0.03907392
71	0x3ddce2ff	0.107854836
72	0xbc2ac857	-0.010423741
73	0x3d49b0ed	0.049240995
74	0xbd02a1fd	-0.031892765
75	0x3c12aab2	0.00895183
76	0xbd99104d	-0.07473812
77	0x3e9ae502	0.30252844
78	0x3ac765be	0.0015212817
79	0x3d814ccb	0.06313475
80	0x3d5c2aad	0.053751636
81	0x3f958163	1.1680111
82	0x3dc124b9	0.094308324
83	0x3d10a772	0.03531594
84	0xbc1478cf	-0.009062006
85	0x3d4b235a	0.04959426
86	0x3d0d7956	0.034539543
87	0x3eb723a1	0.3576937
88	0x3e3b06de	0.18264338
89	0xbd0f2130	-0.03494376
90	0xbd4c69d3	-0.04990561
91	0xbd024f7e	-0.03181409
92	0xbc266de1	-0.010158033
93	0xbe0e81f6	-0.13916764
94	0xbeb105b7	-0.34574673
95	0xbd73cd51	-0.059521977
96	0xbe02fcca	-0.12791744
97	0xbc439443	-0.011937204
98	0xbc7db7cc	-0.015485715
99	0x3d10dddc	0.03536783
100	0xbf2372d1	-0.6384707
101	0x3d2e39a7	0.04253545
102	0x3cef6aaa	0.029225666
103	0xbd2f9452	-0.04286606
104	0xbc7ef80f	-0.015562071
105	0x3bb53c5e	0.005530878
106	0xbd4926ba	-0.0491092
107	0xbde369d6	-0.11104171
108	0xbd26c336	-0.04071351
109	0x3c969f02	0.018386368
110	0x3d2c646a	0.04208795
111	0xbdd33f2c	-0.103147835
112	0x3bfa5f3e	0.0076407483
113	0x3d965eaa	0.073422745
114	0x3ceb8185	0.028748283
115	0x3f8c64e6	1.0968292
116	0x3c85c78e	0.016330507
117	0x3cc128c0	0.023579001
118	0x3d603bdd	0.05474459
119	0xba8b9ff9	-0.0010652534
120	0xbf0c0bbb	-0.547054
121	0x3e1c7939	0.15280618
122	0x3d813427	0.063087754
123	0x3ce4650c	0.027880214
124	0xbd7e2292	-0.062044688
125	0xbd47033e	-0.048587076
126	0xbc04b2e0	-0.008099288
127	0xbbbd4046	-0.0057754843
128	0xbc4b2cd5	-0.0124008255
129	0x3e03df27	0.12878095
130	0x3ccfe6f3	0.02537868
131	0xbe36679b	-0.1781296
132	0xbd75dd12	-0.060025282
133	0x3d0b252e	0.033971004
134	0x3e95b12a	0.29236728
135	0x3d482f3e	0.04887318
136	0xbcf7c14d	-0.03024354
137	0x3da61e26	0.08111219
138	0xbbe4672c	-0.006970307
139	0x3e471c89	0.19444479
140	0x3d400077	0.046875443
141	0xbe8ad501	-0.27115634
142	0xbcf0ac0c	-0.029378913
143	0xbb20526a	-0.0024463185
144	0xbc88609c	-0.01664763
145	0x3db820d4	0.089906365
146	0x3ea56aaf	0.32307956
147	0x3c81b6ba	0.015834201
148	0x3d297196	0.04136809
149	0xbed0de1a	-0.4079445
150	0x3c916d68	0.017752364
151	0x3d142aa9	0.036173496
152	0xbeb622ce	-0.3557343
153	0xbc1f3850	-0.009718016
154	0x3dae5c71	0.085137255
155	0xbdae1ccd	-0.08501587
156	0x3cf3f13e	0.02977812
157	0xbc02872e	-0.0079668
158	0xbd6de0da	-0.058075763
159	0xbce84474	-0.028352953
160	0x3d1bfb23	0.0380813
161	0x3d0011c3	0.03126694
162	0x3e2b0661	0.16701652
163	0x3f3b43e4	0.7315047
164	0x3d506c6b	0.050884645
165	0x3e16d9cf	0.14731525
166	0x3d94c458	0.07264012
167	0xbba5aa77	-0.0050557214
168	0xbd133996	-0.03594359
169	0xbbd49840	-0.006487876
170	0x3ac46359	0.0014983221
171	0xbd206a50	-0.039163888
172	0x3d1d5686	0.038412593
173	0x3dd1e4c2	0.1024871
174	0xbd12df52	-0.035857506
175	0x3c4fb828	0.012678184
176	0x3c412bd5	0.0117902355
177	0x3cea07b2	0.028568123
178	0xbea0891a	-0.313546
179	0x3dabce89	0.08389003
180	0x3ccd562d	0.025065506
181	0x3e3fb324	0.1872068
182	0xbc7e3481	-0.015515448
183	0xbd79c674	-0.060980275
184	0xbc5a7f1c	-0.013335969
185	0x3d661c0f	0.056179103
186	0x3e420cb3	0.18950157
187	0x3a97fd68	0.0011595907
188	0x3d229f51	0.039702717
189	0x3e0fb380	0.14033318
190	0x3d3b13bd	0.04567312
191	0xbd7188a2	-0.058968194
192	0x3e4881cd	0.19580765
193	0x3c1091db	0.008823837
194	0xbef06e28	-0.46959043
195	0x3cb4a08a	0.022049207
196	0x3cbe2da1	0.023215117
197	0x3dfc79fb	0.123279534
198	0x3c98bbff	0.018644331
199	0x3b22ca59	0.0024839847
200	0x3c95e91c	0.018299632
201	0x3d90c613	0.0706903
202	0x3cd3e2d1	0.02586499
203	0xbc155532	-0.00911455
204	0x3d2f587d	0.042809
205	0x3c1845a8	0.009293951
206	0xbcec4c9e	-0.028845128
207	0x3c84059d	0.016115958
208	0x3ca2ea11	0.019887002
209	0xbc9d9984	-0.019238241
210	0x3d7ddcc9	0.061978135
211	0x3da69fd7	0.08135956
212	0xbd23aaac	-0.039957687
213	0x3d026546	0.031834863
214	0x3cc589cc	0.024113558
215	0xbd5e09fc	-0.05420874
216	0xbd5dbf53	-0.05413754
217	0x3d0f662a	0.03500954
218	0xbba2f739	-0.004973319
219	0x3ed4c2ec	0.41554964
220	0xbd81d6a4	-0.063397676
221	0x3d0c2fdc	0.03422533
222	0xbd33f13d	-0.043931235
223	0x3db2f8d9	0.0873887
224	0xbd19c758	-0.037543625
225	0x3d0f033d	0.034915198
226	0x3e524ac9	0.20536341
227	0xbe3cff63	-0.18456797
228	0x3f65aaac	0.8971355
229	0xbd298c15	-0.04139336
230	0x3e70e92e	0.23526451
231	0x3e93509c	0.28772438
232	0x3d13142e	0.035907917
233	0xbd1a6541	-0.03769422
234	0xbb827abc	-0.0039819162
235	0xbca8bef6	-0.02059887
236	0xbf1017bc	-0.56286216
237	0x3ca83dfa	0.020537365
238	0xbcb47f9b	-0.022033503
239	0x3d8084d3	0.06275334
240	0x3db0eafe	0.08638571
241	0xbde80bf0	-0.11330402
242	0xbd2b5ae1	-0.041834716
243	0x3cdefda0	0.027220547
244	0x3c413bb6	0.011794021
245	0xbd4eb5a6	-0.050466202
246	0x3c80c034	0.01571665
247	0xbcacad99	-0.021078872
248	0x3c891300	0.016732693
249	0x3b479508	0.003045382
250	0xbd17f27b	-0.03709648
251	0x3e8c083b	0.2735003
252	0x3ea56550	0.32303858
253	0x3c0c125a	0.008549297
254	0xbc63b184	-0.0138973035
255	0xbcd39ca2	-0.025831524
